Model: "sequential"
_________________________________________________________________
 Layer (type)                Output Shape              Param #   
=================================================================
 dense (Dense)               (None, 65)                3770      
                                                                 
 dropout (Dropout)           (None, 65)                0         
                                                                 
 dense_1 (Dense)             (None, 65)                4290      
                                                                 
 dense_2 (Dense)             (None, 65)                4290      
                                                                 
 dense_3 (Dense)             (None, 65)                4290      
                                                                 
 dense_4 (Dense)             (None, 65)                4290      
                                                                 
 dropout_1 (Dropout)         (None, 65)                0         
                                                                 
 dense_5 (Dense)             (None, 32)                2112      
                                                                 
 dense_6 (Dense)             (None, 32)                1056      
                                                                 
 dropout_2 (Dropout)         (None, 32)                0         
                                                                 
 dense_7 (Dense)             (None, 16)                528       
                                                                 
 dense_8 (Dense)             (None, 16)                272       
                                                                 
 dropout_3 (Dropout)         (None, 16)                0         
                                                                 
 dense_9 (Dense)             (None, 8)                 136       
                                                                 
 dense_10 (Dense)            (None, 8)                 72        
                                                                 
 dense_11 (Dense)            (None, 4)                 36        
                                                                 
=================================================================
Total params: 25142 (98.21 KB)
Trainable params: 25142 (98.21 KB)
Non-trainable params: 0 (0.00 Byte)
_________________________________________________________________

Layer Details:
Layer: dense
Layer Size: 57
Activation Function: relu

Layer: dropout
Layer Size: 65
…
