Model: "sequential_18"
_________________________________________________________________
 Layer (type)                Output Shape              Param #   
=================================================================
 dense_216 (Dense)           (None, 65)                3770      
                                                                 
 dropout_72 (Dropout)        (None, 65)                0         
                                                                 
 dense_217 (Dense)           (None, 65)                4290      
                                                                 
 dense_218 (Dense)           (None, 65)                4290      
                                                                 
 dense_219 (Dense)           (None, 65)                4290      
                                                                 
 dense_220 (Dense)           (None, 65)                4290      
                                                                 
 dropout_73 (Dropout)        (None, 65)                0         
                                                                 
 dense_221 (Dense)           (None, 32)                2112      
                                                                 
 dense_222 (Dense)           (None, 32)                1056      
                                                                 
 dropout_74 (Dropout)        (None, 32)                0         
                                                                 
 dense_223 (Dense)           (None, 16)                528       
                                                                 
 dense_224 (Dense)           (None, 16)                272       
                                                                 
 dropout_75 (Dropout)        (None, 16)                0         
                                                                 
 dense_225 (Dense)           (None, 8)                 136       
                                                                 
 dense_226 (Dense)           (None, 8)                 72        
                                                                 
 dense_227 (Dense)           (None, 4)                 36        
                                                                 
=================================================================
Total params: 25142 (98.21 KB)
Trainable params: 25142 (98.21 KB)
Non-trainable params: 0 (0.00 Byte)
_________________________________________________________________

Layer Details:
Layer: dense_216
Layer Size: 57
Activation Function: relu

Layer: dropout_72
…
